…
+-------+---------------------------------+----------+

[INFO] Curriculum Manager:  <CurriculumManager> contains 0 active terms.
+----------------------+
| Active Curriculum Terms |
+-----------+----------+
|   Index   | Name     |
+-----------+----------+
+-----------+----------+

[INFO]: Completed setting up the environment...
SuperviseLearning.__init__ got unexpected arguments, which will be ignored: ['init_noise_std', 'noise_std_type', 'actor_hidden_dims', 'critic_hidden_dims']
[SuperviseLearning] Loading GMT policy from: /home/yuxuancheng/MOSAIC/model/model_27000.pt
Actor MLP: Sequential(
  (0): Linear(in_features=770, out_features=1024, bias=True)
  (1): ELU(alpha=1.0)
  (2): Linear(in_features=1024, out_features=1024, bias=True)
  (3): ELU(alpha=1.0)
  (4): Linear(in_features=1024, out_features=512, bias=True)
  (5): ELU(alpha=1.0)
  (6): Linear(in_features=512, out_features=256, bias=True)
  (7): ELU(alpha=1.0)
  (8): Linear(in_features=256, out_features=29, bias=True)
)
Critic MLP: Sequential(
  (0): Linear(in_features=289, out_features=1024, bias=True)
  (1): ELU(alpha=1.0)
  (2): Linear(in_features=1024, out_features=1024, bias=True)
  (3): ELU(alpha=1.0)
  (4): Linear(in_features=1024, out_features=512, bias=True)
  (5): ELU(alpha=1.0)
  (6): Linear(in_features=512, out_features=256, bias=True)
  (7): ELU(alpha=1.0)
  (8): Linear(in_features=256, out_features=1, bias=True)
)
[SuperviseLearning] GMT policy loaded and frozen (actor_in=770, actions=29)
[SuperviseLearning] GMT obs normalizer loaded and frozen (dim=770)
[SuperviseLearning] Student MLP output: 29 Δq + 1 Δz = 30 dims
[SuperviseLearning] Student MLP: Sequential(
  (0): Linear(in_features=770, out_features=1024, bias=True)
  (1): ELU(alpha=1.0)
  (2): Linear(in_features=1024, out_features=1024, bias=True)
  (3): ELU(alpha=1.0)
  (4): Linear(in_features=1024, out_features=512, bias=True)
  (5): ELU(alpha=1.0)
  (6): Linear(in_features=512, out_features=256, bias=True)
  (7): ELU(alpha=1.0)
  (8): Linear(in_features=256, out_features=30, bias=True)
)
[SuperviseTrainer] Lower-limb static weight 2.0× applied to 12 joints: [0, 1, 2, 3, 4, 5, 6, 7, 8, 9, 10, 11]
[SuperviseTrainer] Output split: 29 Δq + 1 Δz (z_loss_weight=0.5)
################################################################################
                      [1m Learning iteration 0/25000 [0m                      

                       Computation: 5902 steps/s (collection: 28.813s, learning 19.978s)
…
